…
2022-04-19 21:14:11,252   INFO  Freeze param in attach_backbone_3d.SA_modules.5.aggregation_layer.0.weight
2022-04-19 21:14:11,252   INFO  Freeze param in attach_backbone_3d.SA_modules.5.aggregation_layer.1.weight
2022-04-19 21:14:11,252   INFO  Freeze param in attach_backbone_3d.SA_modules.5.aggregation_layer.1.bias
2022-04-19 21:14:11,253   INFO  IASSD_GAN(
  (vfe): None
  (backbone_3d): IASSD_Backbone(
    (SA_modules): ModuleList(
      (0): PointnetSAModuleMSG_WithSampling(
        (groupers): ModuleList(
          (0): QueryAndGroup()
          (1): QueryAndGroup()
        )
        (mlps): ModuleList(
          (0): Sequential(
            (0): Conv2d(6, 16, kernel_size=(1, 1), stride=(1, 1), bias=False)
            (1): BatchNorm2d(16, eps=1e-05, momentum=0.1, affine=True, track_running_stats=True)
            (2): ReLU()
            (3): Conv2d(16, 16, kernel_size=(1, 1), stride=(1, 1), bias=False)
            (4): BatchNorm2d(16, eps=1e-05, momentum=0.1, affine=True, track_running_stats=True)
            (5): ReLU()
            (6): Conv2d(16, 32, kernel_size=(1, 1), stride=(1, 1), bias=False)
            (7): BatchNorm2d(32, eps=1e-05, momentum=0.1, affine=True, track_running_stats=True)
            (8): ReLU()
          )
          (1): Sequential(
            (0): Conv2d(6, 32, kernel_size=(1, 1), stride=(1, 1), bias=False)
            (1): BatchNorm2d(32, eps=1e-05, momentum=0.1, affine=True, track_running_stats=True)
            (2): ReLU()
            (3): Conv2d(32, 32, kernel_size=(1, 1), stride=(1, 1), bias=False)
            (4): BatchNorm2d(32, eps=1e-05, momentum=0.1, affine=True, track_running_stats=True)
            (5): ReLU()
            (6): Conv2d(32, 64, kernel_size=(1, 1), stride=(1, 1), bias=False)
            (7): BatchNorm2d(64, eps=1e-05, momentum=0.1, affine=True, track_running_stats=True)
            (8): ReLU()
          )
        )
        (aggregation_layer): Sequential(
          (0): Conv1d(96, 64, kernel_size=(1,), stride=(1,), bias=False)
          (1): BatchNorm1d(64, eps=1e-05, momentum=0.1, affine=True, track_running_stats=True)
          (2): ReLU()
        )
      )
      (1): PointnetSAModuleMSG_WithSampling(
        (groupers): ModuleList(
          (0): QueryAndGroup()
          (1): QueryAndGroup()
        )
        (mlps): ModuleList(
          (0): Sequential(
            (0): Conv2d(67, 64, kernel_size=(1, 1), stride=(1, 1), bias=False)
            (1): BatchNorm2d(64, eps=1e-05, momentum=0.1, affine=True, track_running_stats=True)
            (2): ReLU()
            (3): Conv2d(64, 64, kernel_size=(1, 1), stride=(1, 1), bias=False)
            (4): BatchNorm2d(64, eps=1e-05, momentum=0.1, affine=True, track_running_stats=True)
            (5): ReLU()
            (6): Conv2d(64, 128, kernel_size=(1, 1), stride=(1, 1), bias=False)
            (7): BatchNorm2d(128, eps=1e-05, momentum=0.1, affine=True, track_running_stats=True)
            (8): ReLU()
          )
          (1): Sequential(
            (0): Conv2d(67, 64, kernel_size=(1, 1), stride=(1, 1), bias=False)
            (1): BatchNorm2d(64, eps=1e-05, momentum=0.1, affine=True, track_running_stats=True)
            (2): ReLU()
            (3): Conv2d(64, 96, kernel_size=(1, 1), stride=(1, 1), bias=False)
            (4): BatchNorm2d(96, eps=1e-05, momentum=0.1, affine=True, track_running_stats=True)
            (5): ReLU()
            (6): Conv2d(96, 128, kernel_size=(1, 1), stride=(1, 1), bias=False)
            (7): BatchNorm2d(128, eps=1e-05, momentum=0.1, affine=True, track_running_stats=True)
            (8): ReLU()
          )
        )
        (aggregation_layer): Sequential(
          (0): Conv1d(256, 128, kernel_size=(1,), stride=(1,), bias=False)
          (1): BatchNorm1d(128, eps=1e-05, momentum=0.1, affine=True, track_running_stats=True)
          (2): ReLU()
        )
        (confidence_layers): Sequential(
          (0): Conv1d(128, 128, kernel_size=(1,), stride=(1,), bias=False)
          (1): BatchNorm1d(128, eps=1e-05, momentum=0.1, affine=True, track_running_stats=True)
          (2): ReLU()
          (3): Conv1d(128, 1, kernel_size=(1,), stride=(1,))
        )
      )
      (2): PointnetSAModuleMSG_WithSampling(
        (groupers): ModuleList(
          (0): QueryAndGroup()
          (1): QueryAndGroup()
        )
        (mlps): ModuleList(
          (0): Sequential(
            (0): Conv2d(131, 128, kernel_size=(1, 1), stride=(1, 1), bias=False)
            (1): BatchNorm2d(128, eps=1e-05, momentum=0.1, affine=True, track_running_stats=True)
            (2): ReLU()
            (3): Conv2d(128, 128, kernel_size=(1, 1), stride=(1, 1), bias=False)
            (4): BatchNorm2d(128, eps=1e-05, momentum=0.1, affine=True, track_running_stats=True)
            (5): ReLU()
            (6): Conv2d(128, 256, kernel_size=(1, 1), stride=(1, 1), bias=False)
            (7): BatchNorm2d(256, eps=1e-05, momentum=0.1, affine=True, track_running_stats=True)
            (8): ReLU()
          )
          (1): Sequential(
            (0): Conv2d(131, 128, kernel_size=(1, 1), stride=(1, 1), bias=False)
            (1): BatchNorm2d(128, eps=1e-05, momentum=0.1, affine=True, track_running_stats=True)
            (2): ReLU()
            (3): Conv2d(128, 256, kernel_size=(1, 1), stride=(1, 1), bias=False)
            (4): BatchNorm2d(256, eps=1e-05, momentum=0.1, affine=True, track_running_stats=True)
            (5): ReLU()
            (6): Conv2d(256, 256, kernel_size=(1, 1), stride=(1, 1), bias=False)
            (7): BatchNorm2d(256, eps=1e-05, momentum=0.1, affine=True, track_running_stats=True)
            (8): ReLU()
          )
        )
        (aggregation_layer): Sequential(
          (0): Conv1d(512, 256, kernel_size=(1,), stride=(1,), bias=False)
          (1): BatchNorm1d(256, eps=1e-05, momentum=0.1, affine=True, track_running_stats=True)
          (2): ReLU()
        )
        (confidence_layers): Sequential(
          (0): Conv1d(256, 256, kernel_size=(1,), stride=(1,), bias=False)
          (1): BatchNorm1d(256, eps=1e-05, momentum=0.1, affine=True, track_running_stats=True)
          (2): ReLU()
          (3): Conv1d(256, 1, kernel_size=(1,), stride=(1,))
        )
      )
      (3): PointnetSAModuleMSG_WithSampling(
        (groupers): ModuleList()
        (mlps): ModuleList()
      )
      (4): Vote_layer(
        (mlp_modules): Sequential(
          (0): Conv1d(256, 128, kernel_size=(1,), stride=(1,), bias=False)
          (1): BatchNorm1d(128, eps=1e-05, momentum=0.1, affine=True, track_running_stats=True)
          (2): ReLU()
        )
        (ctr_reg): Conv1d(128, 3, kernel_size=(1,), stride=(1,))
      )
      (5): PointnetSAModuleMSG_WithSampling(
        (groupers): ModuleList(
          (0): QueryAndGroup()
          (1): QueryAndGroup()
        )
        (mlps): ModuleList(
          (0): Sequential(
            (0): Conv2d(259, 256, kernel_size=(1, 1), stride=(1, 1), bias=False)
            (1): BatchNorm2d(256, eps=1e-05, momentum=0.1, affine=True, track_running_stats=True)
            (2): ReLU()
            (3): Conv2d(256, 256, kernel_size=(1, 1), stride=(1, 1), bias=False)
            (4): BatchNorm2d(256, eps=1e-05, momentum=0.1, affine=True, track_running_stats=True)
            (5): ReLU()
            (6): Conv2d(256, 512, kernel_size=(1, 1), stride=(1, 1), bias=False)
            (7): BatchNorm2d(512, eps=1e-05, momentum=0.1, affine=True, track_running_stats=True)
            (8): ReLU()
          )
          (1): Sequential(
            (0): Conv2d(259, 256, kernel_size=(1, 1), stride=(1, 1), bias=False)
            (1): BatchNorm2d(256, eps=1e-05, momentum=0.1, affine=True, track_running_stats=True)
            (2): ReLU()
            (3): Conv2d(256, 512, kernel_size=(1, 1), stride=(1, 1), bias=False)
            (4): BatchNorm2d(512, eps=1e-05, momentum=0.1, affine=True, track_running_stats=True)
            (5): ReLU()
            (6): Conv2d(512, 1024, kernel_size=(1, 1), stride=(1, 1), bias=False)
            (7): BatchNorm2d(1024, eps=1e-05, momentum=0.1, affine=True, track_running_stats=True)
            (8): ReLU()
          )
        )
        (aggregation_layer): Sequential(
          (0): Conv1d(1536, 512, kernel_size=(1,), stride=(1,), bias=False)
          (1): BatchNorm1d(512, eps=1e-05, momentum=0.1, affine=True, track_running_stats=True)
          (2): ReLU()
        )
      )
    )
  )
  (map_to_bev_module): None
  (pfe): None
  (backbone_2d): None
  (dense_head): None
  (point_head): IASSD_Head(
    (cls_loss_func): WeightedClassificationLoss()
    (reg_loss_func): WeightedSmoothL1Loss()
    (ins_loss_func): WeightedClassificationLoss()
    (cls_center_layers): Sequential(
      (0): Linear(in_features=512, out_features=256, bias=False)
      (1): BatchNorm1d(256, eps=1e-05, momentum=0.1, affine=True, track_running_stats=True)
      (2): ReLU()
      (3): Linear(in_features=256, out_features=256, bias=False)
      (4): BatchNorm1d(256, eps=1e-05, momentum=0.1, affine=True, track_running_stats=True)
      (5): ReLU()
      (6): Linear(in_features=256, out_features=1, bias=True)
    )
    (box_center_layers): Sequential(
      (0): Linear(in_features=512, out_features=256, bias=False)
      (1): BatchNorm1d(256, eps=1e-05, momentum=0.1, affine=True, track_running_stats=True)
      (2): ReLU()
      (3): Linear(in_features=256, out_features=256, bias=False)
      (4): BatchNorm1d(256, eps=1e-05, momentum=0.1, affine=True, track_running_stats=True)
      (5): ReLU()
      (6): Linear(in_features=256, out_features=30, bias=True)
    )
  )
  (roi_head): None
  (attach_backbone_3d): IASSD_Backbone(
    (SA_modules): ModuleList(
      (0): PointnetSAModuleMSG_WithSampling(
        (groupers): ModuleList(
          (0): QueryAndGroup()
          (1): QueryAndGroup()
        )
        (mlps): ModuleList(
          (0): Sequential(
            (0): Conv2d(4, 16, kernel_size=(1, 1), stride=(1, 1), bias=False)
            (1): BatchNorm2d(16, eps=1e-05, momentum=0.1, affine=True, track_running_stats=True)
            (2): ReLU()
            (3): Conv2d(16, 16, kernel_size=(1, 1), stride=(1, 1), bias=False)
            (4): BatchNorm2d(16, eps=1e-05, momentum=0.1, affine=True, track_running_stats=True)
            (5): ReLU()
            (6): Conv2d(16, 32, kernel_size=(1, 1), stride=(1, 1), bias=False)
            (7): BatchNorm2d(32, eps=1e-05, momentum=0.1, affine=True, track_running_stats=True)
            (8): ReLU()
          )
          (1): Sequential(
            (0): Conv2d(4, 32, kernel_size=(1, 1), stride=(1, 1), bias=False)
            (1): BatchNorm2d(32, eps=1e-05, momentum=0.1, affine=True, track_running_stats=True)
            (2): ReLU()
            (3): Conv2d(32, 32, kernel_size=(1, 1), stride=(1, 1), bias=False)
            (4): BatchNorm2d(32, eps=1e-05, momentum=0.1, affine=True, track_running_stats=True)
            (5): ReLU()
            (6): Conv2d(32, 64, kernel_size=(1, 1), stride=(1, 1), bias=False)
            (7): BatchNorm2d(64, eps=1e-05, momentum=0.1, affine=True, track_running_stats=True)
            (8): ReLU()
          )
        )
        (aggregation_layer): Sequential(
          (0): Conv1d(96, 64, kernel_size=(1,), stride=(1,), bias=False)
          (1): BatchNorm1d(64, eps=1e-05, momentum=0.1, affine=True, track_running_stats=True)
          (2): ReLU()
        )
      )
      (1): PointnetSAModuleMSG_WithSampling(
        (groupers): ModuleList(
          (0): QueryAndGroup()
          (1): QueryAndGroup()
        )
        (mlps): ModuleList(
          (0): Sequential(
            (0): Conv2d(67, 64, kernel_size=(1, 1), stride=(1, 1), bias=False)
            (1): BatchNorm2d(64, eps=1e-05, momentum=0.1, affine=True, track_running_stats=True)
            (2): ReLU()
            (3): Conv2d(64, 64, kernel_size=(1, 1), stride=(1, 1), bias=False)
            (4): BatchNorm2d(64, eps=1e-05, momentum=0.1, affine=True, track_running_stats=True)
            (5): ReLU()
            (6): Conv2d(64, 128, kernel_size=(1, 1), stride=(1, 1), bias=False)
            (7): BatchNorm2d(128, eps=1e-05, momentum=0.1, affine=True, track_running_stats=True)
            (8): ReLU()
          )
          (1): Sequential(
            (0): Conv2d(67, 64, kernel_size=(1, 1), stride=(1, 1), bias=False)
            (1): BatchNorm2d(64, eps=1e-05, momentum=0.1, affine=True, track_running_stats=True)
            (2): ReLU()
            (3): Conv2d(64, 96, kernel_size=(1, 1), stride=(1, 1), bias=False)
            (4): BatchNorm2d(96, eps=1e-05, momentum=0.1, affine=True, track_running_stats=True)
            (5): ReLU()
            (6): Conv2d(96, 128, kernel_size=(1, 1), stride=(1, 1), bias=False)
            (7): BatchNorm2d(128, eps=1e-05, momentum=0.1, affine=True, track_running_stats=True)
            (8): ReLU()
          )
        )
        (aggregation_layer): Sequential(
          (0): Conv1d(256, 128, kernel_size=(1,), stride=(1,), bias=False)
          (1): BatchNorm1d(128, eps=1e-05, momentum=0.1, affine=True, track_running_stats=True)
          (2): ReLU()
        )
        (confidence_layers): Sequential(
          (0): Conv1d(128, 128, kernel_size=(1,), stride=(1,), bias=False)
          (1): BatchNorm1d(128, eps=1e-05, momentum=0.1, affine=True, track_running_stats=True)
          (2): ReLU()
          (3): Conv1d(128, 1, kernel_size=(1,), stride=(1,))
        )
      )
      (2): PointnetSAModuleMSG_WithSampling(
        (groupers): ModuleList(
          (0): QueryAndGroup()
          (1): QueryAndGroup()
        )
        (mlps): ModuleList(
          (0): Sequential(
            (0): Conv2d(131, 128, kernel_size=(1, 1), stride=(1, 1), bias=False)
            (1): BatchNorm2d(128, eps=1e-05, momentum=0.1, affine=True, track_running_stats=True)
            (2): ReLU()
            (3): Conv2d(128, 128, kernel_size=(1, 1), stride=(1, 1), bias=False)
            (4): BatchNorm2d(128, eps=1e-05, momentum=0.1, affine=True, track_running_stats=True)
            (5): ReLU()
            (6): Conv2d(128, 256, kernel_size=(1, 1), stride=(1, 1), bias=False)
            (7): BatchNorm2d(256, eps=1e-05, momentum=0.1, affine=True, track_running_stats=True)
            (8): ReLU()
          )
          (1): Sequential(
            (0): Conv2d(131, 128, kernel_size=(1, 1), stride=(1, 1), bias=False)
            (1): BatchNorm2d(128, eps=1e-05, momentum=0.1, affine=True, track_running_stats=True)
            (2): ReLU()
            (3): Conv2d(128, 256, kernel_size=(1, 1), stride=(1, 1), bias=False)
            (4): BatchNorm2d(256, eps=1e-05, momentum=0.1, affine=True, track_running_stats=True)
            (5): ReLU()
            (6): Conv2d(256, 256, kernel_size=(1, 1), stride=(1, 1), bias=False)
            (7): BatchNorm2d(256, eps=1e-05, momentum=0.1, affine=True, track_running_stats=True)
            (8): ReLU()
          )
        )
        (aggregation_layer): Sequential(
          (0): Conv1d(512, 256, kernel_size=(1,), stride=(1,), bias=False)
          (1): BatchNorm1d(256, eps=1e-05, momentum=0.1, affine=True, track_running_stats=True)
          (2): ReLU()
        )
        (confidence_layers): Sequential(
          (0): Conv1d(256, 256, kernel_size=(1,), stride=(1,), bias=False)
          (1): BatchNorm1d(256, eps=1e-05, momentum=0.1, affine=True, track_running_stats=True)
          (2): ReLU()
          (3): Conv1d(256, 1, kernel_size=(1,), stride=(1,))
        )
      )
      (3): PointnetSAModuleMSG_WithSampling(
        (groupers): ModuleList()
        (mlps): ModuleList()
      )
      (4): Vote_layer(
        (mlp_modules): Sequential(
          (0): Conv1d(256, 128, kernel_size=(1,), stride=(1,), bias=False)
          (1): BatchNorm1d(128, eps=1e-05, momentum=0.1, affine=True, track_running_stats=True)
          (2): ReLU()
        )
        (ctr_reg): Conv1d(128, 3, kernel_size=(1,), stride=(1,))
      )
      (5): PointnetSAModuleMSG_WithSampling(
        (groupers): ModuleList(
          (0): QueryAndGroup()
          (1): QueryAndGroup()
        )
        (mlps): ModuleList(
          (0): Sequential(
            (0): Conv2d(259, 256, kernel_size=(1, 1), stride=(1, 1), bias=False)
            (1): BatchNorm2d(256, eps=1e-05, momentum=0.1, affine=True, track_running_stats=True)
            (2): ReLU()
            (3): Conv2d(256, 256, kernel_size=(1, 1), stride=(1, 1), bias=False)
            (4): BatchNorm2d(256, eps=1e-05, momentum=0.1, affine=True, track_running_stats=True)
            (5): ReLU()
            (6): Conv2d(256, 512, kernel_size=(1, 1), stride=(1, 1), bias=False)
            (7): BatchNorm2d(512, eps=1e-05, momentum=0.1, affine=True, track_running_stats=True)
            (8): ReLU()
          )
          (1): Sequential(
            (0): Conv2d(259, 256, kernel_size=(1, 1), stride=(1, 1), bias=False)
            (1): BatchNorm2d(256, eps=1e-05, momentum=0.1, affine=True, track_running_stats=True)
            (2): ReLU()
            (3): Conv2d(256, 512, kernel_size=(1, 1), stride=(1, 1), bias=False)
            (4): BatchNorm2d(512, eps=1e-05, momentum=0.1, affine=True, track_running_stats=True)
            (5): ReLU()
            (6): Conv2d(512, 1024, kernel_size=(1, 1), stride=(1, 1), bias=False)
            (7): BatchNorm2d(1024, eps=1e-05, momentum=0.1, affine=True, track_running_stats=True)
            (8): ReLU()
          )
        )
        (aggregation_layer): Sequential(
          (0): Conv1d(1536, 512, kernel_size=(1,), stride=(1,), bias=False)
          (1): BatchNorm1d(512, eps=1e-05, momentum=0.1, affine=True, track_running_stats=True)
          (2): ReLU()
        )
      )
    )
  )
  (attach_model): IASSD_Backbone(
    (SA_modules): ModuleList(
      (0): PointnetSAModuleMSG_WithSampling(
        (groupers): ModuleList(
          (0): QueryAndGroup()
          (1): QueryAndGroup()
        )
        (mlps): ModuleList(
          (0): Sequential(
            (0): Conv2d(4, 16, kernel_size=(1, 1), stride=(1, 1), bias=False)
            (1): BatchNorm2d(16, eps=1e-05, momentum=0.1, affine=True, track_running_stats=True)
            (2): ReLU()
            (3): Conv2d(16, 16, kernel_size=(1, 1), stride=(1, 1), bias=False)
            (4): BatchNorm2d(16, eps=1e-05, momentum=0.1, affine=True, track_running_stats=True)
            (5): ReLU()
            (6): Conv2d(16, 32, kernel_size=(1, 1), stride=(1, 1), bias=False)
            (7): BatchNorm2d(32, eps=1e-05, momentum=0.1, affine=True, track_running_stats=True)
            (8): ReLU()
          )
          (1): Sequential(
            (0): Conv2d(4, 32, kernel_size=(1, 1), stride=(1, 1), bias=False)
            (1): BatchNorm2d(32, eps=1e-05, momentum=0.1, affine=True, track_running_stats=True)
            (2): ReLU()
            (3): Conv2d(32, 32, kernel_size=(1, 1), stride=(1, 1), bias=False)
            (4): BatchNorm2d(32, eps=1e-05, momentum=0.1, affine=True, track_running_stats=True)
            (5): ReLU()
            (6): Conv2d(32, 64, kernel_size=(1, 1), stride=(1, 1), bias=False)
            (7): BatchNorm2d(64, eps=1e-05, momentum=0.1, affine=True, track_running_stats=True)
            (8): ReLU()
          )
        )
        (aggregation_layer): Sequential(
          (0): Conv1d(96, 64, kernel_size=(1,), stride=(1,), bias=False)
          (1): BatchNorm1d(64, eps=1e-05, momentum=0.1, affine=True, track_running_stats=True)
          (2): ReLU()
        )
      )
      (1): PointnetSAModuleMSG_WithSampling(
        (groupers): ModuleList(
          (0): QueryAndGroup()
          (1): QueryAndGroup()
        )
        (mlps): ModuleList(
          (0): Sequential(
            (0): Conv2d(67, 64, kernel_size=(1, 1), stride=(1, 1), bias=False)
            (1): BatchNorm2d(64, eps=1e-05, momentum=0.1, affine=True, track_running_stats=True)
            (2): ReLU()
            (3): Conv2d(64, 64, kernel_size=(1, 1), stride=(1, 1), bias=False)
            (4): BatchNorm2d(64, eps=1e-05, momentum=0.1, affine=True, track_running_stats=True)
            (5): ReLU()
            (6): Conv2d(64, 128, kernel_size=(1, 1), stride=(1, 1), bias=False)
            (7): BatchNorm2d(128, eps=1e-05, momentum=0.1, affine=True, track_running_stats=True)
            (8): ReLU()
          )
          (1): Sequential(
            (0): Conv2d(67, 64, kernel_size=(1, 1), stride=(1, 1), bias=False)
            (1): BatchNorm2d(64, eps=1e-05, momentum=0.1, affine=True, track_running_stats=True)
            (2): ReLU()
            (3): Conv2d(64, 96, kernel_size=(1, 1), stride=(1, 1), bias=False)
            (4): BatchNorm2d(96, eps=1e-05, momentum=0.1, affine=True, track_running_stats=True)
            (5): ReLU()
            (6): Conv2d(96, 128, kernel_size=(1, 1), stride=(1, 1), bias=False)
            (7): BatchNorm2d(128, eps=1e-05, momentum=0.1, affine=True, track_running_stats=True)
            (8): ReLU()
          )
        )
        (aggregation_layer): Sequential(
          (0): Conv1d(256, 128, kernel_size=(1,), stride=(1,), bias=False)
          (1): BatchNorm1d(128, eps=1e-05, momentum=0.1, affine=True, track_running_stats=True)
          (2): ReLU()
        )
        (confidence_layers): Sequential(
          (0): Conv1d(128, 128, kernel_size=(1,), stride=(1,), bias=False)
          (1): BatchNorm1d(128, eps=1e-05, momentum=0.1, affine=True, track_running_stats=True)
          (2): ReLU()
          (3): Conv1d(128, 1, kernel_size=(1,), stride=(1,))
        )
      )
      (2): PointnetSAModuleMSG_WithSampling(
        (groupers): ModuleList(
          (0): QueryAndGroup()
          (1): QueryAndGroup()
        )
        (mlps): ModuleList(
          (0): Sequential(
            (0): Conv2d(131, 128, kernel_size=(1, 1), stride=(1, 1), bias=False)
            (1): BatchNorm2d(128, eps=1e-05, momentum=0.1, affine=True, track_running_stats=True)
            (2): ReLU()
            (3): Conv2d(128, 128, kernel_size=(1, 1), stride=(1, 1), bias=False)
            (4): BatchNorm2d(128, eps=1e-05, momentum=0.1, affine=True, track_running_stats=True)
            (5): ReLU()
            (6): Conv2d(128, 256, kernel_size=(1, 1), stride=(1, 1), bias=False)
            (7): BatchNorm2d(256, eps=1e-05, momentum=0.1, affine=True, track_running_stats=True)
            (8): ReLU()
          )
          (1): Sequential(
            (0): Conv2d(131, 128, kernel_size=(1, 1), stride=(1, 1), bias=False)
            (1): BatchNorm2d(128, eps=1e-05, momentum=0.1, affine=True, track_running_stats=True)
            (2): ReLU()
            (3): Conv2d(128, 256, kernel_size=(1, 1), stride=(1, 1), bias=False)
            (4): BatchNorm2d(256, eps=1e-05, momentum=0.1, affine=True, track_running_stats=True)
            (5): ReLU()
            (6): Conv2d(256, 256, kernel_size=(1, 1), stride=(1, 1), bias=False)
            (7): BatchNorm2d(256, eps=1e-05, momentum=0.1, affine=True, track_running_stats=True)
            (8): ReLU()
          )
        )
        (aggregation_layer): Sequential(
          (0): Conv1d(512, 256, kernel_size=(1,), stride=(1,), bias=False)
          (1): BatchNorm1d(256, eps=1e-05, momentum=0.1, affine=True, track_running_stats=True)
          (2): ReLU()
        )
        (confidence_layers): Sequential(
          (0): Conv1d(256, 256, kernel_size=(1,), stride=(1,), bias=False)
          (1): BatchNorm1d(256, eps=1e-05, momentum=0.1, affine=True, track_running_stats=True)
          (2): ReLU()
          (3): Conv1d(256, 1, kernel_size=(1,), stride=(1,))
        )
      )
      (3): PointnetSAModuleMSG_WithSampling(
        (groupers): ModuleList()
        (mlps): ModuleList()
      )
      (4): Vote_layer(
        (mlp_modules): Sequential(
          (0): Conv1d(256, 128, kernel_size=(1,), stride=(1,), bias=False)
          (1): BatchNorm1d(128, eps=1e-05, momentum=0.1, affine=True, track_running_stats=True)
          (2): ReLU()
        )
        (ctr_reg): Conv1d(128, 3, kernel_size=(1,), stride=(1,))
      )
      (5): PointnetSAModuleMSG_WithSampling(
        (groupers): ModuleList(
          (0): QueryAndGroup()
          (1): QueryAndGroup()
        )
        (mlps): ModuleList(
          (0): Sequential(
            (0): Conv2d(259, 256, kernel_size=(1, 1), stride=(1, 1), bias=False)
            (1): BatchNorm2d(256, eps=1e-05, momentum=0.1, affine=True, track_running_stats=True)
            (2): ReLU()
            (3): Conv2d(256, 256, kernel_size=(1, 1), stride=(1, 1), bias=False)
            (4): BatchNorm2d(256, eps=1e-05, momentum=0.1, affine=True, track_running_stats=True)
            (5): ReLU()
            (6): Conv2d(256, 512, kernel_size=(1, 1), stride=(1, 1), bias=False)
            (7): BatchNorm2d(512, eps=1e-05, momentum=0.1, affine=True, track_running_stats=True)
            (8): ReLU()
          )
          (1): Sequential(
            (0): Conv2d(259, 256, kernel_size=(1, 1), stride=(1, 1), bias=False)
            (1): BatchNorm2d(256, eps=1e-05, momentum=0.1, affine=True, track_running_stats=True)
            (2): ReLU()
            (3): Conv2d(256, 512, kernel_size=(1, 1), stride=(1, 1), bias=False)
            (4): BatchNorm2d(512, eps=1e-05, momentum=0.1, affine=True, track_running_stats=True)
            (5): ReLU()
            (6): Conv2d(512, 1024, kernel_size=(1, 1), stride=(1, 1), bias=False)
            (7): BatchNorm2d(1024, eps=1e-05, momentum=0.1, affine=True, track_running_stats=True)
            (8): ReLU()
          )
        )
        (aggregation_layer): Sequential(
          (0): Conv1d(1536, 512, kernel_size=(1,), stride=(1,), bias=False)
          (1): BatchNorm1d(512, eps=1e-05, momentum=0.1, affine=True, track_running_stats=True)
          (2): ReLU()
        )
      )
    )
  )
  (transfer): DomainCrossOver(
    (lidar_shared_mlp): CrossOverBlock(
      (mlp): Sequential(
        (0): mlp_bn_relu(
          (net): Sequential(
            (0): Conv1d(512, 448, kernel_size=(1,), stride=(1,))
            (1): BatchNorm1d(448, eps=1e-05, momentum=0.1, affine=True, track_running_stats=True)
            (2): ReLU()
          )
        )
        (1): mlp_bn_relu(
          (net): Sequential(
            (0): Conv1d(448, 384, kernel_size=(1,), stride=(1,))
            (1): BatchNorm1d(384, eps=1e-05, momentum=0.1, affine=True, track_running_stats=True)
            (2): ReLU()
          )
        )
        (2): mlp_bn_relu(
          (net): Sequential(
            (0): Conv1d(384, 320, kernel_size=(1,), stride=(1,))
            (1): BatchNorm1d(320, eps=1e-05, momentum=0.1, affine=True, track_running_stats=True)
            (2): ReLU()
          )
        )
        (3): mlp_bn_relu(
          (net): Sequential(
            (0): Conv1d(320, 256, kernel_size=(1,), stride=(1,))
            (1): BatchNorm1d(256, eps=1e-05, momentum=0.1, affine=True, track_running_stats=True)
            (2): ReLU()
          )
        )
      )
    )
    (radar_shared_mlp): CrossOverBlock(
      (mlp): Sequential(
        (0): mlp_bn_relu(
          (net): Sequential(
            (0): Conv1d(512, 448, kernel_size=(1,), stride=(1,))
            (1): BatchNorm1d(448, eps=1e-05, momentum=0.1, affine=True, track_running_stats=True)
            (2): ReLU()
          )
        )
        (1): mlp_bn_relu(
          (net): Sequential(
            (0): Conv1d(448, 384, kernel_size=(1,), stride=(1,))
            (1): BatchNorm1d(384, eps=1e-05, momentum=0.1, affine=True, track_running_stats=True)
            (2): ReLU()
          )
        )
        (2): mlp_bn_relu(
          (net): Sequential(
            (0): Conv1d(384, 320, kernel_size=(1,), stride=(1,))
            (1): BatchNorm1d(320, eps=1e-05, momentum=0.1, affine=True, track_running_stats=True)
            (2): ReLU()
          )
        )
        (3): mlp_bn_relu(
          (net): Sequential(
            (0): Conv1d(320, 256, kernel_size=(1,), stride=(1,))
            (1): BatchNorm1d(256, eps=1e-05, momentum=0.1, affine=True, track_running_stats=True)
            (2): ReLU()
          )
        )
      )
    )
    (lidar_unique_mlp): CrossOverBlock(
      (mlp): Sequential(
        (0): mlp_bn_relu(
          (net): Sequential(
            (0): Conv1d(512, 448, kernel_size=(1,), stride=(1,))
            (1): BatchNorm1d(448, eps=1e-05, momentum=0.1, affine=True, track_running_stats=True)
            (2): ReLU()
          )
        )
        (1): mlp_bn_relu(
          (net): Sequential(
            (0): Conv1d(448, 384, kernel_size=(1,), stride=(1,))
            (1): BatchNorm1d(384, eps=1e-05, momentum=0.1, affine=True, track_running_stats=True)
            (2): ReLU()
          )
        )
        (2): mlp_bn_relu(
          (net): Sequential(
            (0): Conv1d(384, 320, kernel_size=(1,), stride=(1,))
            (1): BatchNorm1d(320, eps=1e-05, momentum=0.1, affine=True, track_running_stats=True)
            (2): ReLU()
          )
        )
        (3): mlp_bn_relu(
          (net): Sequential(
            (0): Conv1d(320, 256, kernel_size=(1,), stride=(1,))
            (1): BatchNorm1d(256, eps=1e-05, momentum=0.1, affine=True, track_running_stats=True)
            (2): ReLU()
          )
        )
      )
    )
    (radar_unique_mlp): CrossOverBlock(
      (mlp): Sequential(
        (0): mlp_bn_relu(
          (net): Sequential(
            (0): Conv1d(512, 448, kernel_size=(1,), stride=(1,))
            (1): BatchNorm1d(448, eps=1e-05, momentum=0.1, affine=True, track_running_stats=True)
            (2): ReLU()
          )
        )
        (1): mlp_bn_relu(
          (net): Sequential(
            (0): Conv1d(448, 384, kernel_size=(1,), stride=(1,))
            (1): BatchNorm1d(384, eps=1e-05, momentum=0.1, affine=True, track_running_stats=True)
            (2): ReLU()
          )
        )
        (2): mlp_bn_relu(
          (net): Sequential(
            (0): Conv1d(384, 320, kernel_size=(1,), stride=(1,))
            (1): BatchNorm1d(320, eps=1e-05, momentum=0.1, affine=True, track_running_stats=True)
            (2): ReLU()
          )
        )
        (3): mlp_bn_relu(
          (net): Sequential(
            (0): Conv1d(320, 256, kernel_size=(1,), stride=(1,))
            (1): BatchNorm1d(256, eps=1e-05, momentum=0.1, affine=True, track_running_stats=True)
            (2): ReLU()
          )
        )
      )
    )
    (radar_recover_mlp): CrossOverBlock(
      (mlp): Sequential(
        (0): mlp_bn_relu(
          (net): Sequential(
            (0): Conv1d(512, 512, kernel_size=(1,), stride=(1,))
            (1): BatchNorm1d(512, eps=1e-05, momentum=0.1, affine=True, track_running_stats=True)
            (2): ReLU()
          )
        )
        (1): mlp_bn_relu(
          (net): Sequential(
            (0): Conv1d(512, 512, kernel_size=(1,), stride=(1,))
            (1): BatchNorm1d(512, eps=1e-05, momentum=0.1, affine=True, track_running_stats=True)
            (2): ReLU()
          )
        )
        (2): mlp_bn_relu(
          (net): Sequential(
            (0): Conv1d(512, 512, kernel_size=(1,), stride=(1,))
            (1): BatchNorm1d(512, eps=1e-05, momentum=0.1, affine=True, track_running_stats=True)
            (2): ReLU()
          )
        )
        (3): mlp_bn_relu(
          (net): Sequential(
            (0): Conv1d(512, 512, kernel_size=(1,), stride=(1,))
            (1): BatchNorm1d(512, eps=1e-05, momentum=0.1, affine=True, track_running_stats=True)
            (2): ReLU()
          )
        )
      )
    )
    (lidar_recover_mlp): CrossOverBlock(
      (mlp): Sequential(
        (0): mlp_bn_relu(
          (net): Sequential(
            (0): Conv1d(512, 512, kernel_size=(1,), stride=(1,))
            (1): BatchNorm1d(512, eps=1e-05, momentum=0.1, affine=True, track_running_stats=True)
            (2): ReLU()
          )
        )
        (1): mlp_bn_relu(
          (net): Sequential(
            (0): Conv1d(512, 512, kernel_size=(1,), stride=(1,))
            (1): BatchNorm1d(512, eps=1e-05, momentum=0.1, affine=True, track_running_stats=True)
            (2): ReLU()
          )
        )
        (2): mlp_bn_relu(
          (net): Sequential(
            (0): Conv1d(512, 512, kernel_size=(1,), stride=(1,))
            (1): BatchNorm1d(512, eps=1e-05, momentum=0.1, affine=True, track_running_stats=True)
            (2): ReLU()
          )
        )
        (3): mlp_bn_relu(
          (net): Sequential(
            (0): Conv1d(512, 512, kernel_size=(1,), stride=(1,))
            (1): BatchNorm1d(512, eps=1e-05, momentum=0.1, affine=True, track_running_stats=True)
            (2): ReLU()
          )
        )
      )
    )
  )
  (shared_point_head): IASSD_Head(
    (cls_loss_func): WeightedClassificationLoss()
    (reg_loss_func): WeightedSmoothL1Loss()
    (ins_loss_func): WeightedClassificationLoss()
    (cls_center_layers): Sequential(
      (0): Linear(in_features=256, out_features=256, bias=False)
      (1): BatchNorm1d(256, eps=1e-05, momentum=0.1, affine=True, track_running_stats=True)
      (2): ReLU()
      (3): Linear(in_features=256, out_features=256, bias=False)
      (4): BatchNorm1d(256, eps=1e-05, momentum=0.1, affine=True, track_running_stats=True)
      (5): ReLU()
      (6): Linear(in_features=256, out_features=1, bias=True)
    )
    (box_center_layers): Sequential(
      (0): Linear(in_features=256, out_features=256, bias=False)
      (1): BatchNorm1d(256, eps=1e-05, momentum=0.1, affine=True, track_running_stats=True)
      (2): ReLU()
      (3): Linear(in_features=256, out_features=256, bias=False)
      (4): BatchNorm1d(256, eps=1e-05, momentum=0.1, affine=True, track_running_stats=True)
      (5): ReLU()
      (6): Linear(in_features=256, out_features=30, bias=True)
    )
  )
  (shared_head): IASSD_Head(
    (cls_loss_func): WeightedClassificationLoss()
    (reg_loss_func): WeightedSmoothL1Loss()
    (ins_loss_func): WeightedClassificationLoss()
    (cls_center_layers): Sequential(
      (0): Linear(in_features=256, out_features=256, bias=False)
      (1): BatchNorm1d(256, eps=1e-05, momentum=0.1, affine=True, track_running_stats=True)
      (2): ReLU()
      (3): Linear(in_features=256, out_features=256, bias=False)
      (4): BatchNorm1d(256, eps=1e-05, momentum=0.1, affine=True, track_running_stats=True)
      (5): ReLU()
      (6): Linear(in_features=256, out_features=1, bias=True)
    )
    (box_center_layers): Sequential(
      (0): Linear(in_features=256, out_features=256, bias=False)
      (1): BatchNorm1d(256, eps=1e-05, momentum=0.1, affine=True, track_running_stats=True)
      (2): ReLU()
      (3): Linear(in_features=256, out_features=256, bias=False)
      (4): BatchNorm1d(256, eps=1e-05, momentum=0.1, affine=True, track_running_stats=True)
      (5): ReLU()
      (6): Linear(in_features=256, out_features=30, bias=True)
    )
  )
)
2022-04-19 21:14:11,259   INFO  **********************Start training root/dj/code/CenterPoint-KITTI/tools/cfgs/inhouse_models/IA-SSD-GAN(domain_cross_new)**********************
epochs:   0%|          | 0/15 [00:00<?, ?it/s]The Zen of Python, by Tim Peters

Beautiful is better than ugly.
Explicit is better than implicit.
Simple is better than complex.
…
